models/hey_aria.onnx (onnx, 205430 bytes, 9 tensors)

layer1.weight f4 [32, 1536]
0.020138834 0.018323382 -0.013926384 -0.07103951 -0.0035803665 0.018489134 -0.004876742 -0.019290995
0.0063174246 0.016975233 0.001328397 0.028969442 0.013356097 -0.012033735 -0.011262377 -0.01135236
0.013826745 0.013672116 -0.0227863 0.013683451 0.007919449 -0.009974027 -0.0027225297 -0.011908713
0.0008959609 -0.008848567 -0.0005733395 -0.036124237 -0.028449768 -0.0038542803 0.02322639 0.0013093052
-0.019327736 0.006090352 0.010920435 0.001987617 -0.014560327 0.0148656545 0.031980626 -0.021334568
0.026190668 -0.010238208 -0.023464868 0.011431025 0.012891163 -0.0089799445 -0.022411719 -0.00033632657
-0.024097988 0.025534257 0.0037249564 0.023063656 -0.023039322 0.028376222 0.0041076588 0.012556101
0.033446062 -0.009182904 -0.017418772 -0.0051340736 -0.027184606 -0.017863424 -0.00067881244 -0.018886007
-0.0018920999 -0.009421676 -0.002954161 -0.02677384 -0.02929462 -0.0046236305 -0.0036155875 0.008011652
0.017413985 0.006179536 -0.01841484 0.005384477 -0.0044378554 -0.0017782245 0.0064108693 -0.0016179293
-0.00479574 -0.008127051 -0.010669979 -0.0064831288 0.0079453755 -0.016872337 0.0036818907 0.015882846
-0.012199017 -0.01680651 -0.0006284223 0.014364695 -0.027362863 -0.016236354 0.0049215266 0.009983436
0.027712956 0.01332784 0.014803166 -0.024606492 -0.0024222936 0.012599367 -0.022773717 -0.016783211
-0.005196189 -0.013924254 -0.00056209485 -0.009724865 -0.017803239 -0.0222269 -0.01822767 -0.011325512
0.002982247 0.021894742 -0.0024245768 0.010313304 0.018619323 0.00078465726 -0.022761859 0.019761875
-0.016406152 0.010623579 -0.0223455 -0.024268031 -0.016069997 -0.0046979575 0.0045679146 0.016942006
0.007921221 0.009028888 -0.03024205 -0.006379784 0.0030863597 0.019812763 0.010703333 -0.0075667887
0.006197035 -0.0013039841 -0.008515156 0.017744835 -0.009707383 -0.023402322 0.0036847524 0.011540612
-0.02983461 -0.011391387 -0.006478281 0.010784018 0.003631436 0.0046808682 -0.018643131 -0.0012358557
0.010836754 -0.027176803 -0.009688439 -0.0039091012 -0.0006478717 -0.024643507 -0.0029578079 0.013975112
-0.0076612085 0.026899084 0.0021872278 -0.0069271424 -0.006379003 -0.008863295 -0.0035741709 -0.013968307
-0.005562307 0.014677113 0.015177252 0.006192155 0.039869066 0.015927533 0.0016196577 0.015847538
0.004395227 -0.024480179 -0.025385022 0.020860117 0.0009372076 -0.014227788 -0.025611585 0.010231035
0.0077863373 0.0032353487 -0.010032946 -0.012760811 0.0010724593 0.004159142 -0.01438315 -0.0023232833
0.021998705 -0.00025149737 0.018817833 -0.039757404 0.027586108 0.0118751945 -0.011735966 -0.020697704
-0.026604801 0.003885898 -0.013563675 0.014190033 -0.0088229105 0.0011016842 0.004199999 -0.037300296
0.0042239996 -0.0018563624 -0.0112071205 -0.0031321459 -0.019769879 0.020947646 0.005293294 -0.0056323423
0.002919119 0.021051247 -0.021233654 -0.024075866 0.005031419 0.0067870207 0.028731206 -0.021348836
-0.020355279 0.02781034 -0.0075887567 -0.021439636 -0.013980319 0.003025886 -0.007130669 -0.007172562
-0.019571707 0.008239454 0.007299684 0.023546696 -0.011051606 -0.024710823 -0.013851826 -0.012631819
-0.019011497 0.006180567 -0.0016972383 0.018375501 0.0023241702 0.018315798 0.018337646 0.0036487684
0.024719676 -0.01580494 -0.013338906 0.022584846 -0.0005593522 -0.0076694875 0.0044489047 0.009460632
00000000: 32fa a43c eb1a 963c 7d2b 64bc 2a7d 91bd
00000010: 95a4 6abb 8676 973c 14cd 9fbb 2608 9ebc
00000020: 6602 cf3b a50f 8b3c 9b1d ae3a 5351 ed3c
00000030: 88d3 5a3c 2529 45bc d585 38bc 40ff 39bc
00000040: 9289 623c 0301 603c 56aa babc 8e30 603c
00000050: 94c0 013c 1a6a 23bc 786c 32bb c31c 43bc
00000060: ebde 6a3a 94f9 10bc 2a4c 16ba 02f7 13bd
00000070: 7d0f e9bc 1898 7cbb 4545 be3c fe9c ab3a
00000080: 3355 9ebc 9391 c73b a0eb 323c ae42 023b
00000090: 708e 6ebc 138f 733c 1efe 023d d5c5 aebc
000000a0: d08d d63c 28be 27bc 6539 c0bc 3249 3b3c
000000b0: 7535 533c 9e20 13bc c898 b7bc fd54 b0b9
000000c0: 2569 c5bc 382d d13c 661e 743b feef bc3c
000000d0: f6bc bcbc 4075 e83c 8a99 863b 1bb8 4d3c
000000e0: bdfe 083d e473 16bc d0b1 8ebc bb3b a8bb
000000f0: 40b2 debc 5156 92bc 55f2 31ba d4b6 9abc
00000100: 5600 f8ba 605d 1abc 999a 41bb d054 dbbc
00000110: 45fb efbc d381 97bb 7ef3 6cbb 4e43 033c
00000120: c6a7 8e3c b57d ca3b b8da 96bc 4470 b03b
00000130: 6e6b 91bb 5013 e9ba 4512 d23b b310 d4ba
00000140: 9525 9dbb 5327 05bc 23d1 2ebc 6d70 d4bb
00000150: 522d 023c db37 8abc e04b 713b be1c 823c
00000160: 63de 47bc cead 89bc b5bc 24ba e659 6b3c
00000170: 1528 e0bc 1a02 85bc c244 a13b 9191 233c
00000180: 4806 e33c 035d 5a3c fa88 723c 8e93 c9bc
00000190: 58bf 1ebb 936d 4e3c f28f babc f27c 89bc
000001a0: cb44 aabb 8e22 64bc 8c59 13ba 0a55 1fbc
000001b0: 19d8 91bc 3015 b6bc 3252 95bc a48e 39bc
000001c0: cd71 433b 9a5c b33c a6e5 1ebb 22f9 283c
000001d0: 8d87 983c 75b1 4d3a 1477 babc a8e3 a13c
000001e0: 3266 86bc 850e 2e3c e90d b7bc c0cd c6bc
000001f0: 3aa5 83bc 53f1 99bb 72ae 953b f6c9 8a3c
00000200: 02c8 013c e7ed 133c 2dbe f7bc 820d d1bb
00000210: 8644 4a3b 604e a23c 085d 2f3c d3f2 f7bb
00000220: 7f10 cb3b 72ea aaba 2783 0bbc 9e5d 913c
00000230: b70b 1fbc 3ab6 bfbc e37b 713b d614 3d3c
00000240: b667 f4bc f1a2 3abc c347 d4bb 73af 303c
00000250: 63fd 6d3b f861 993b 7bb9 98bc 70fc a1ba
00000260: a48c 313c e3a1 debc 42bc 1ebc eb17 80bb
00000270: efd5 29ba 2ee1 c9bc c8d7 41bb def7 643c
00000280: e00a fbbb 785b dc3c 9857 0f3b 15fd e2bb
00000290: f506 d1bb 5b37 11bc a33c 6abb 53db 64bc
000002a0: 0344 b6bb 4678 703c 02aa 783c 90e7 ca3b
000002b0: bf4d 233d 757a 823c b24a d43a b2d2 813c
000002c0: d605 903b a88a c8bc 40f4 cfbc d6e2 aa3c
000002d0: f0ae 753a ab1b 69bc 63cf d1bc 12a0 273c
000002e0: 8824 ff3b 2508 543b 3a61 24bc b812 51bc
000002f0: c391 8c3a 6949 883b 4ea7 6bbc 3a42 18bb
00000300: a136 b43c 68db 83b9 db27 9a3c a9d8 22bd
00000310: 43fc e13c 2d90 423c 3648 40bc 3b8e a9bc
00000320: 50f2 d9bc 8daa 7e3b 2d3a 5ebc 507d 683c
00000330: f88d 10bc 6366 903a 25a0 893b 32c8 18bd
00000340: 7a69 8a3b 3051 f3ba 129e 37bc b044 4dbb
00000350: 71f4 a1bc 669a ab3c 5e73 ad3b 838f b8bb
00000360: b14e 3f3b aa73 ac3c 33f2 adbc c03a c5bc
00000370: 9ade a43b a865 de3b b55d eb3c c1e3 aebc
00000380: 1dc0 a6bc 83d2 e33c 1bab f8bb 2da2 afbc
00000390: b50d 65bc f14d 463b 63a8 e9bb d007 ebbb
000003a0: d854 a0bc c6fe 063c 3032 ef3b 00e5 c03c
000003b0: cc11 35bc 5a6e cabc c5f2 62bc b0f5 4ebc
000003c0: 00be 9bbc 5b86 ca3b de75 deba 3888 963c
000003d0: 1b51 183b 030b 963c d538 963c 2d20 6f3b
000003e0: eb80 ca3c 5d79 81bc 6d8b 5abc db03 b93c
000003f0: 7ea1 12ba 5350 fbbb 1ec8 913b c400 1b3c

layer1.bias f4 [32]
-0.003632325 0.021388508 -0.016249668 0.0067633553 0.020455653 0.025951818 0.02659149 -0.0030912645
-0.0147203775 0.015969627 0.0073665455 -0.020831523 -0.018857758 -0.015949499 0.026662122 0.0012505047
-0.021440081 -0.0042540347 -0.015812466 -0.0035088374 -0.004912986 0.0010529343 0.022881756 0.020093638
0.009049784 -0.011817542 -0.023575587 0.0036513328 0.00044159227 0.007490225 0.015414593 0.010276509
00000000: 4d0c 6ebb f436 af3c 061e 85bc 239f dd3b
00000010: 9d92 a73c e898 d43c 65d6 d93c d096 4abb
00000020: bd2d 71bc bcd2 823c 1063 f13b dfa6 aabc
00000030: 967b 9abc 86a8 82bc 866a da3c fae7 a33a
00000040: 1ca3 afbc 6e65 8bbb 2589 81bc 86f4 65bb
00000050: 1dfd a0bb 9d02 8a3a 8572 bb3c 6a9b a43c
00000060: 8c45 143c 5d9e 41bc 9721 c1bc 334b 6f3b
00000070: 8385 e739 9070 f53b 7d8d 7c3c ce5e 283c

layernorm1.weight f4 [32]
0.9945036 0.99787724 1.0121685 0.9416415 0.9843872 1.0292453 1.0022691 0.9985172
0.9717358 1.0026921 0.98973674 0.99160206 0.9980091 0.9930681 1.0002722 0.99707806
1.0074737 0.99694026 0.9833741 1.0103195 0.99787676 0.9956683 1.0015767 1.0449216
1.0032328 0.9974281 0.9976574 1.011307 0.9732362 0.99619645 1.0015606 1.0034671
00000000: ca97 7e3f e274 7f3f bd8e 813f 6b0f 713f
00000010: cd00 7c3f 4fbe 833f 5b4a 803f d39e 7f3f
00000020: adc3 783f 3758 803f 635f 7d3f a2d9 7d3f
00000030: 867d 7f3f b639 7e3f eb08 803f 8240 7f3f
00000040: e6f4 803f 7a37 7f3f 68be 7b3f 2652 813f
00000050: da74 7f3f 1ee4 7e3f aa33 803f febf 853f
00000060: ef69 803f 7357 7f3f 7a66 7f3f 8272 813f
00000070: 0226 793f bb06 7f3f 2333 803f 9c71 803f

layernorm1.bias f4 [32]
-0.0032664936 -0.008836618 0.0074087665 -0.065324366 -0.031637844 0.02632836 0.0106073 -0.0023600901
-0.01838876 0.005954468 0.017643854 -0.00895984 -0.009661923 -0.0046237516 0.007512639 -0.009147079
0.0059917504 -0.0050807362 0.035788756 0.014939706 -0.010130124 -0.008431521 0.004370597 0.016173923
0.008914593 -0.0102981 -0.008887539 0.033154767 0.0011269795 0.0056628855 -0.0067781573 0.019214457
00000000: ab12 56bb 76c7 10bc 3dc5 f23b c8c8 85bd
00000010: af96 01bd 93ae d73c 3eca 2d3c beab 1abb
00000020: 06a4 96bc b31d c33b d889 903c 4bcc 12bc
00000030: 0b4d 1ebc d782 97bb 952c f63b a1dd 15bc
00000040: 7256 c43b 4e7c a6bb 3b97 123d abc5 743c
00000050: d2f8 25bc 5d24 0abc 3a37 8f3b 2d7f 843c
00000060: 830e 123c 5db9 28bc 0a9d 11bc 4bcd 073d
00000070: 28b7 933a ba8f b93b 4e1b debb a367 9d3c

blocks.0.fcn_layer.weight f4 [32, 32]
-0.027502134 0.17418334 -0.115765855 0.15964495 -0.17167659 0.0263278 0.017503554 0.14022799
-0.05777828 0.044556785 0.043113537 0.02650481 -0.13467696 0.06707979 0.12289797 -0.13010505
-0.08349522 0.04682621 -0.15782456 0.066241875 -0.08267716 0.13780992 -0.17792515 -0.044341214
-0.073644325 0.11766925 -0.08037338 -0.031147242 0.12538919 0.12656686 -0.03662728 0.08537507
0.084794104 -0.11584113 -0.03881273 0.15945256 0.07974486 -0.031515073 0.10372176 -0.14815024
0.11743311 -0.049375877 0.06377648 0.08882542 -0.15235311 -0.05095573 0.14421315 0.08811162
-0.12076993 0.09047529 0.07782426 0.18206085 0.1468526 -0.09099127 -0.05525309 -0.14133376
-0.07552182 -0.092151955 0.006047698 0.095115244 0.10657962 0.08050232 0.06069672 0.1499268
-0.0468064 -0.06480276 0.13614197 0.1292631 -0.049859926 -0.066047594 -0.09764069 -0.0872346
-0.070945576 0.17134559 -0.13032067 0.097900234 0.04654849 -0.00072532456 0.119016945 0.09607285
-0.07516118 -0.059728168 -0.0359027 -0.04201953 -0.1741312 0.17307994 -0.028485423 -0.035512
0.17715053 0.083068766 0.08171643 -0.09250123 0.075924546 0.13229902 0.15154114 -0.13903145
0.027738612 0.13298829 -0.15566286 -0.054189146 0.016578883 -0.00942159 0.046490185 -0.03233226
0.015463138 -0.10506244 -0.04917526 -0.09416436 -0.08948502 0.08477248 0.03866337 0.065318964
0.008851476 -0.1527777 0.14090538 -0.082785785 -0.031565856 0.15069444 0.15395191 -0.090575315
0.00021324719 0.09701668 0.12673694 -0.04518516 -0.1130746 0.13840142 0.048128195 0.020196896
-0.10372324 -0.13541359 0.14826617 0.048649147 -0.057594854 0.21072987 0.09169325 -0.03283621
0.009005785 -0.05412359 0.025136346 -0.13597621 0.041835483 0.037948694 0.061629474 -0.08262202
-0.11024076 -0.00036729616 0.06203406 -0.083457276 -0.10447089 -0.078297995 -0.09343986 0.08235544
0.019328846 0.05793321 -0.08410217 0.09032272 -0.0011663018 0.03470462 -0.010576012 -0.04958681
0.12770939 0.12951186 0.13439307 0.025956709 -0.037615627 -0.10573844 -0.15397479 -0.16809306
-0.10745257 0.040017914 -0.02037822 -0.0923556 -0.009066532 -0.10980835 -0.08849469 -0.06334024
-0.034356438 0.035247944 -0.1374714 -0.029759472 -0.0028327743 0.064447105 0.0620925 0.07858453
0.12190703 -0.09286591 0.12136726 0.12729438 0.09999348 0.103644446 0.13016742 -0.13113244
0.017082607 -0.06779591 -0.14387305 -0.012888944 -0.10276268 0.058023434 0.008974062 -0.17683862
-0.020238297 0.11377932 -0.022762906 0.10244815 0.05273019 0.037187926 -0.11355238 -0.15821873
-0.14321372 0.15647972 -0.117221996 0.052414037 -0.08629005 -0.077920474 -0.013517449 0.13570388
0.07503111 0.0067863436 0.080246344 -0.008073012 -0.114833355 0.0100556845 0.06919928 0.0089442935
0.11242869 -0.06949826 -0.07398509 -0.006235767 0.12184153 -0.07534543 0.025482262 -0.036248412
0.15048751 0.077759884 -0.018521233 -0.15904489 -0.09390481 0.112789825 -0.07838465 0.0007715217
0.1700626 0.11093192 0.11686383 -0.05679391 -0.11389498 0.14227572 -0.09586682 0.056819923
0.015992407 0.12134681 -0.06330434 0.15062386 -0.17411622 0.044465262 0.053022422 0.078307256
00000000: 284c e1bc 1e5d 323e a616 edbd f779 233e
00000010: fdcb 2fbe 66ad d73c 9d63 8f3c ed97 0f3e
00000020: eba8 6cbd 2d81 363d d297 303d 9e20 d93c
00000030: c2e8 09be 2161 893d eeb1 fb3d 423a 05be
00000040: 8bff aabd d7cc 3f3d c39c 21be d2a9 873d
00000050: a552 a9bd 0b1e 0d3e 0332 36be 229f 35bd
00000060: d6d2 96bd 93fc f03d cc9a a4bd 8028 ffbc
00000070: 0666 003e be9a 013e 7d06 16bd 20d9 ae3d
00000080: 88a8 ad3d 1d3e edbd 19fa 1ebd 8847 233e
00000090: 4651 a33d f315 01bd 136c d43d b2b4 17be
000000a0: c580 f03d 5c3e 4abd 3e9d 823d 1aea b53d
000000b0: 7402 1cbe f5b6 50bd 9dac 133e dd73 b43d
000000c0: 3a56 f7bd 1c4b b93d 5362 9f3d 296e 3a3e
000000d0: 8760 163e a259 babd 1051 62bd ccb9 10be
000000e0: 2fab 9abd 2aba bcbd c52b c63b c8cb c23d
000000f0: 6a46 da3d 66de a43d 209d 783d 6986 193e
00000100: 11b8 3fbd 4fb7 84bd cd68 0b3e 8c5d 043e
00000110: ec39 4cbd f643 87bd d8f7 c7bd 0ea8 b2bd
00000120: ea4b 91bd 3875 2f3e c872 05be eb7f c83d
00000130: a1a9 3e3d b523 3eba 28bf f33d d8c1 c43d
00000140: 1bee 99bd 86a5 74bd b60e 13bd ac1c 2cbd
00000150: 734f 32be de3b 313e 435a e9bc 0875 11bd
00000160: f366 353e f51f aa3d f25a a73d 4971 bdbd
00000170: 547e 9b3d 6579 073e 9a2d 1b3e 435e 0ebe
00000180: 163c e33c 152e 083e 1666 1fbe 70f5 5dbd
00000190: 70d0 873c 035d 1abc 7e6c 3e3d d56e 04bd
000001a0: 1a59 7d3c fa2a d7bd ff6b 49bd 3ed9 c0bd
000001b0: ec43 b7bd 329d ad3d 7b5d 1e3d f3c5 853d
000001c0: c805 113c c271 1cbe 8049 103e 988b a9bd
000001d0: 334b 01bd a54f 1a3e 92a5 1d3e 8d7f b9bd
000001e0: 1b9b 5f39 aeb0 c63d 54c7 013e 1314 39bd
000001f0: a893 e7bd 1ab9 0d3e 1222 453d f673 a53c
00000200: da6c d4bd dca9 0abe 16d3 173e 5444 473d
00000210: 95e8 6bbd 92c9 573e acc9 bb3d 437f 06bd
00000220: 008d 133c b3b0 5dbd bdea cd3c 593d 0bbe
00000230: af5b 2b3d 1770 1b3d 306f 7c3d bc35 a9bd
00000240: e8c5 e1bd a891 c0b9 6d17 7e3d a6eb aabd
00000250: d5f4 d5bd b35a a0bd 665d bfbd f8a9 a83d
00000260: 8757 9e3c 604b 6d3d c23d acbd 1efb b83d
00000270: 98de 98ba 6e26 0e3d 0247 2dbc 8a1b 4bbd
00000280: 40c6 023e c29e 043e 569e 093e 2aa3 d43c
00000290: d812 1abd 658d d8bd 91ab 1dbe 9620 2cbe
000002a0: 1810 dcbd d3e9 233d 3af0 a6bc ef24 bdbd
000002b0: cb8b 14bc 33e3 e0bd b43c b5bd 87b8 81bd
000002c0: 56b9 0cbd 2660 103d 4dc5 0cbe 23ca f3bc
000002d0: 11a6 39bb d8fc 833d b554 7e3d edf0 a03d
000002e0: 65aa f93d 7b30 bebd 668f f83d 7559 023e
000002f0: 62c9 cc3d 8a43 d43d 9c4a 053e 9547 06be
00000300: d3f0 8b3c 95d8 8abd 7553 13be 262c 53bc
00000310: 3d75 d2bd fba9 6d3d f207 133c 2f15 35be
00000320: c9ca a5bc 2205 e93d 4679 babc 56d0 d13d
00000330: 9dfb 573d 5e52 183d 268e e8bd 1704 22be
00000340: 9ea6 12be 383c 203e 1612 f0bd 1ab0 563d
00000350: d6b8 b0bd c594 9fbd 4a78 5dbc f5f5 0a3e
00000360: e9a9 993d fa5f de3b 3258 a43d ab44 04bc
00000370: c02d ebbd 99c0 243c 5ab8 8d3d 168b 123c
00000380: 0341 e63d 1b55 8ebd 7f85 97bd 6855 ccbb
00000390: 0d88 f93d b44e 9abd 2dc0 d03c 3779 14bd
000003a0: 6619 1a3e 9340 9f3d d7b9 97bc aadc 22be
000003b0: 2a51 c0bd 5afe e63d 2288 a0bd f23f 4a3a
000003c0: e424 2e3e 4630 e33d 4e56 ef3d bba0 68bd
000003d0: c541 e9bd bab0 113e d355 c4bd 02bc 683d
000003e0: 8202 833c ad84 f83d b5a5 81bd 243d 1a3e
000003f0: 864b 32be 3521 363d 0a2e 593d 8e5f a03d

blocks.0.fcn_layer.bias f4 [32]
-0.114796855 -0.07698771 0.11959978 -0.03251371 0.09273866 -0.033086453 0.04253634 -0.02487867
-0.12305649 -0.1272326 0.12002675 -0.033862848 -0.1335406 -0.18013218 0.09300201 0.15576522
0.042749673 -0.00010318209 0.1483683 -0.059702773 -0.18702479 0.035266798 0.042265117 -0.030303067
0.00081409235 0.16373625 0.010814936 0.057437457 -0.074523225 -0.016553586 0.066222586 -0.092794165
00000000: 9d1a ebbd bcab 9dbd bbf0 f43d 192d 05bd
00000010: c4ed bd3d a985 07bd 963a 2e3d 5ace cbbc
00000020: 0b05 fcbd 4349 02be 96d0 f53d c5b3 0abd
00000030: debe 08be 9274 38be d677 be3d eb80 1f3e
00000040: 481a 2f3d 7663 d8b8 dced 173e e58a 74bd
00000050: 6d83 3fbe eb73 103d 301e 2d3d 233e f8bc
00000060: d068 553a 7aaa 273e 2131 313c 8a43 6b3d
00000070: a29f 98bd 639b 87bc b59f 873d de0a bebd

blocks.0.layer_norm.weight f4 [32]
0.9966677 1.0284259 0.997635 1.001346 1.4710953 1.0266356 1.0456951 1.0679023
1.0474403 1.0021822 1.0170567 0.9940775 1.0170547 1.0137846 0.99650204 1.0145079
1.2551968 0.998504 1.4477307 1.3139555 0.9995837 1.001634 1.2846295 1.2246361
1.0125263 1.0707821 0.9485733 1.0131128 1.0697634 1.0599475 1.319535 1.007002
00000000: 9d25 7f3f 76a3 833f 0265 7f3f 1b2c 803f
00000010: da4c bc3f cc68 833f 56d9 853f 06b1 883f
00000020: 8612 863f 8247 803f ea2e 823f dd7b 7e3f
00000030: d92e 823f b2c3 813f c21a 7f3f 65db 813f
00000040: 4aaa a03f f59d 7f3f 3d4f b93f b22f a83f
00000050: b8e4 7f3f 8b35 803f bd6e a43f e0c0 9c3f
00000060: 769a 813f 630f 893f b3d5 723f aead 813f
00000070: 02ee 883f 5cac 873f 86e6 a83f 71e5 803f

blocks.0.layer_norm.bias f4 [32]
-0.007990582 0.013819108 -0.004297031 0.004211406 0.37869063 0.0023137142 0.0314456 0.0202666
0.04044758 0.0066731498 0.013319763 -0.006648334 0.010707137 0.014959341 -0.0055173226 0.018040333
0.2740855 -0.00858244 0.36519188 0.30313197 0.014216748 0.0064145788 0.28711057 0.26060668
0.01633969 0.050945662 -0.053354807 0.01818385 0.01860809 0.02363953 0.30444077 0.009578456
00000000: eeea 02bc 8a69 623c 1cce 8cbb d6ff 893b
00000010: bde3 c13e afa1 173b 1acd 003d 2406 a63c
00000020: 5dac 253d 70aa da3b 233b 5a3c 45da d9bb
00000030: fd6c 2f3c 0618 753c a8ca b4bb 52c9 933c
00000040: ef54 8c3e 5d9d 0cbc 6efa ba3e 1d34 9b3e
00000050: 5ded 683c 6331 d23b 2800 933e 3d6e 853e
00000060: d0da 853c 66ac 503d 928a 5abd 4cf6 943c
00000070: fe6f 983c b0a7 c13c a9df 9b3e f5ee 1c3c

last_layer.weight f4 [1, 32]
0.13343538 0.12609658 0.0021074738 -0.0007148779 -0.38479894 0.042566106 0.029171418 0.1844876
0.14360443 0.112412475 0.1537329 -0.12874368 0.010286677 0.0091359 0.07089874 0.08654114
-0.35239747 0.17031977 -0.3722339 -0.32563573 -0.010652631 0.11714618 -0.34223223 -0.3759615
-0.025690803 0.201281 0.0017094642 -0.021096598 0.19487724 0.16673574 -0.3295583 -0.17083167
00000000: 49a3 083e 761f 013e 8b1d 0a3b a566 3bba
00000010: 5e04 c5be cc59 2e3d e6f8 ee3c 51ea 3c3e
00000020: 0a0d 133e 8338 e63d 286c 1d3e 62d5 03be
00000030: 7389 283c beae 153c 5c33 913d 7b3c b13d
00000040: 716d b4be 4e68 2e3e 7195 bebe bab9 a6be
00000050: 5f88 2ebc 56ea ef3d 1039 afbe 077e c0be
00000060: 8575 d2bc 9b1c 4e3e 1a10 e03a c6d2 acbc
00000070: e68d 473e c6bc 2a3e debb a8be 7fee 2ebe
